…
number of total params (M): 3.684 stem: 3.438 trunk: 0.000 head: 0.244 encoder: 0.000
====================================================
============ Full Model Architecture ============
====================================================
Policy(
  (trunk): ModuleDict(
    (trunk): SimpleTransformer(
      (pre_transformer_layer): Sequential(
        (0): Identity()
        (1): EinOpsRearrange()
      )
      (blocks): Sequential(
        (0): BlockWithMasking(
          (attn): MultiheadAttention(
            (out_proj): NonDynamicallyQuantizableLinear(in_features=768, out_features=768, bias=True)
          )
          (drop_path): Identity()
          (norm_1): LayerNorm((768,), eps=1e-06, elementwise_affine=True)
          (mlp): Mlp(
            (fc1): Linear(in_features=768, out_features=3072, bias=True)
            (act): GELU(approximate='none')
            (fc2): Linear(in_features=3072, out_features=768, bias=True)
            (drop): Dropout(p=0.0, inplace=False)
          )
          (norm_2): LayerNorm((768,), eps=1e-06, elementwise_affine=True)
        )
        (1): BlockWithMasking(
          (attn): MultiheadAttention(
            (out_proj): NonDynamicallyQuantizableLinear(in_features=768, out_features=768, bias=True)
          )
          (drop_path): DropPath(drop_prob=0.003)
          (norm_1): LayerNorm((768,), eps=1e-06, elementwise_affine=True)
          (mlp): Mlp(
            (fc1): Linear(in_features=768, out_features=3072, bias=True)
            (act): GELU(approximate='none')
            (fc2): Linear(in_features=3072, out_features=768, bias=True)
            (drop): Dropout(p=0.0, inplace=False)
          )
          (norm_2): LayerNorm((768,), eps=1e-06, elementwise_affine=True)
        )
        (2): BlockWithMasking(
          (attn): MultiheadAttention(
            (out_proj): NonDynamicallyQuantizableLinear(in_features=768, out_features=768, bias=True)
          )
          (drop_path): DropPath(drop_prob=0.006)
          (norm_1): LayerNorm((768,), eps=1e-06, elementwise_affine=True)
          (mlp): Mlp(
            (fc1): Linear(in_features=768, out_features=3072, bias=True)
            (act): GELU(approximate='none')
            (fc2): Linear(in_features=3072, out_features=768, bias=True)
            (drop): Dropout(p=0.0, inplace=False)
          )
          (norm_2): LayerNorm((768,), eps=1e-06, elementwise_affine=True)
        )
        (3): BlockWithMasking(
          (attn): MultiheadAttention(
            (out_proj): NonDynamicallyQuantizableLinear(in_features=768, out_features=768, bias=True)
          )
          (drop_path): DropPath(drop_prob=0.010)
          (norm_1): LayerNorm((768,), eps=1e-06, elementwise_affine=True)
          (mlp): Mlp(
            (fc1): Linear(in_features=768, out_features=3072, bias=True)
            (act): GELU(approximate='none')
            (fc2): Linear(in_features=3072, out_features=768, bias=True)
            (drop): Dropout(p=0.0, inplace=False)
          )
          (norm_2): LayerNorm((768,), eps=1e-06, elementwise_affine=True)
        )
        (4): BlockWithMasking(
          (attn): MultiheadAttention(
            (out_proj): NonDynamicallyQuantizableLinear(in_features=768, out_features=768, bias=True)
          )
          (drop_path): DropPath(drop_prob=0.013)
          (norm_1): LayerNorm((768,), eps=1e-06, elementwise_affine=True)
          (mlp): Mlp(
            (fc1): Linear(in_features=768, out_features=3072, bias=True)
            (act): GELU(approximate='none')
            (fc2): Linear(in_features=3072, out_features=768, bias=True)
            (drop): Dropout(p=0.0, inplace=False)
          )
          (norm_2): LayerNorm((768,), eps=1e-06, elementwise_affine=True)
        )
        (5): BlockWithMasking(
          (attn): MultiheadAttention(
            (out_proj): NonDynamicallyQuantizableLinear(in_features=768, out_features=768, bias=True)
          )
          (drop_path): DropPath(drop_prob=0.016)
          (norm_1): LayerNorm((768,), eps=1e-06, elementwise_affine=True)
          (mlp): Mlp(
            (fc1): Linear(in_features=768, out_features=3072, bias=True)
            (act): GELU(approximate='none')
            (fc2): Linear(in_features=3072, out_features=768, bias=True)
            (drop): Dropout(p=0.0, inplace=False)
          )
          (norm_2): LayerNorm((768,), eps=1e-06, elementwise_affine=True)
        )
        (6): BlockWithMasking(
          (attn): MultiheadAttention(
            (out_proj): NonDynamicallyQuantizableLinear(in_features=768, out_features=768, bias=True)
          )
          (drop_path): DropPath(drop_prob=0.019)
          (norm_1): LayerNorm((768,), eps=1e-06, elementwise_affine=True)
          (mlp): Mlp(
            (fc1): Linear(in_features=768, out_features=3072, bias=True)
            (act): GELU(approximate='none')
            (fc2): Linear(in_features=3072, out_features=768, bias=True)
            (drop): Dropout(p=0.0, inplace=False)
          )
          (norm_2): LayerNorm((768,), eps=1e-06, elementwise_affine=True)
        )
        (7): BlockWithMasking(
          (attn): MultiheadAttention(
            (out_proj): NonDynamicallyQuantizableLinear(in_features=768, out_features=768, bias=True)
          )
          (drop_path): DropPath(drop_prob=0.023)
          (norm_1): LayerNorm((768,), eps=1e-06, elementwise_affine=True)
          (mlp): Mlp(
            (fc1): Linear(in_features=768, out_features=3072, bias=True)
            (act): GELU(approximate='none')
            (fc2): Linear(in_features=3072, out_features=768, bias=True)
            (drop): Dropout(p=0.0, inplace=False)
          )
          (norm_2): LayerNorm((768,), eps=1e-06, elementwise_affine=True)
        )
        (8): BlockWithMasking(
          (attn): MultiheadAttention(
            (out_proj): NonDynamicallyQuantizableLinear(in_features=768, out_features=768, bias=True)
          )
          (drop_path): DropPath(drop_prob=0.026)
          (norm_1): LayerNorm((768,), eps=1e-06, elementwise_affine=True)
          (mlp): Mlp(
            (fc1): Linear(in_features=768, out_features=3072, bias=True)
            (act): GELU(approximate='none')
            (fc2): Linear(in_features=3072, out_features=768, bias=True)
            (drop): Dropout(p=0.0, inplace=False)
          )
          (norm_2): LayerNorm((768,), eps=1e-06, elementwise_affine=True)
        )
        (9): BlockWithMasking(
          (attn): MultiheadAttention(
            (out_proj): NonDynamicallyQuantizableLinear(in_features=768, out_features=768, bias=True)
          )
          (drop_path): DropPath(drop_prob=0.029)
          (norm_1): LayerNorm((768,), eps=1e-06, elementwise_affine=True)
          (mlp): Mlp(
            (fc1): Linear(in_features=768, out_features=3072, bias=True)
            (act): GELU(approximate='none')
            (fc2): Linear(in_features=3072, out_features=768, bias=True)
            (drop): Dropout(p=0.0, inplace=False)
          )
          (norm_2): LayerNorm((768,), eps=1e-06, elementwise_affine=True)
        )
        (10): BlockWithMasking(
          (attn): MultiheadAttention(
            (out_proj): NonDynamicallyQuantizableLinear(in_features=768, out_features=768, bias=True)
          )
          (drop_path): DropPath(drop_prob=0.032)
          (norm_1): LayerNorm((768,), eps=1e-06, elementwise_affine=True)
          (mlp): Mlp(
            (fc1): Linear(in_features=768, out_features=3072, bias=True)
            (act): GELU(approximate='none')
            (fc2): Linear(in_features=3072, out_features=768, bias=True)
            (drop): Dropout(p=0.0, inplace=False)
          )
          (norm_2): LayerNorm((768,), eps=1e-06, elementwise_affine=True)
        )
        (11): BlockWithMasking(
          (attn): MultiheadAttention(
            (out_proj): NonDynamicallyQuantizableLinear(in_features=768, out_features=768, bias=True)
          )
          (drop_path): DropPath(drop_prob=0.035)
          (norm_1): LayerNorm((768,), eps=1e-06, elementwise_affine=True)
          (mlp): Mlp(
            (fc1): Linear(in_features=768, out_features=3072, bias=True)
            (act): GELU(approximate='none')
            (fc2): Linear(in_features=3072, out_features=768, bias=True)
            (drop): Dropout(p=0.0, inplace=False)
          )
          (norm_2): LayerNorm((768,), eps=1e-06, elementwise_affine=True)
        )
        (12): BlockWithMasking(
          (attn): MultiheadAttention(
            (out_proj): NonDynamicallyQuantizableLinear(in_features=768, out_features=768, bias=True)
          )
          (drop_path): DropPath(drop_prob=0.039)
          (norm_1): LayerNorm((768,), eps=1e-06, elementwise_affine=True)
          (mlp): Mlp(
            (fc1): Linear(in_features=768, out_features=3072, bias=True)
            (act): GELU(approximate='none')
            (fc2): Linear(in_features=3072, out_features=768, bias=True)
            (drop): Dropout(p=0.0, inplace=False)
          )
          (norm_2): LayerNorm((768,), eps=1e-06, elementwise_affine=True)
        )
        (13): BlockWithMasking(
          (attn): MultiheadAttention(
            (out_proj): NonDynamicallyQuantizableLinear(in_features=768, out_features=768, bias=True)
          )
          (drop_path): DropPath(drop_prob=0.042)
          (norm_1): LayerNorm((768,), eps=1e-06, elementwise_affine=True)
          (mlp): Mlp(
            (fc1): Linear(in_features=768, out_features=3072, bias=True)
            (act): GELU(approximate='none')
            (fc2): Linear(in_features=3072, out_features=768, bias=True)
            (drop): Dropout(p=0.0, inplace=False)
          )
          (norm_2): LayerNorm((768,), eps=1e-06, elementwise_affine=True)
        )
        (14): BlockWithMasking(
          (attn): MultiheadAttention(
            (out_proj): NonDynamicallyQuantizableLinear(in_features=768, out_features=768, bias=True)
          )
          (drop_path): DropPath(drop_prob=0.045)
          (norm_1): LayerNorm((768,), eps=1e-06, elementwise_affine=True)
          (mlp): Mlp(
            (fc1): Linear(in_features=768, out_features=3072, bias=True)
            (act): GELU(approximate='none')
            (fc2): Linear(in_features=3072, out_features=768, bias=True)
            (drop): Dropout(p=0.0, inplace=False)
          )
          (norm_2): LayerNorm((768,), eps=1e-06, elementwise_affine=True)
        )
        (15): BlockWithMasking(
          (attn): MultiheadAttention(
            (out_proj): NonDynamicallyQuantizableLinear(in_features=768, out_features=768, bias=True)
          )
          (drop_path): DropPath(drop_prob=0.048)
          (norm_1): LayerNorm((768,), eps=1e-06, elementwise_affine=True)
          (mlp): Mlp(
            (fc1): Linear(in_features=768, out_features=3072, bias=True)
            (act): GELU(approximate='none')
            (fc2): Linear(in_features=3072, out_features=768, bias=True)
            (drop): Dropout(p=0.0, inplace=False)
          )
          (norm_2): LayerNorm((768,), eps=1e-06, elementwise_affine=True)
        )
        (16): BlockWithMasking(
          (attn): MultiheadAttention(
            (out_proj): NonDynamicallyQuantizableLinear(in_features=768, out_features=768, bias=True)
          )
          (drop_path): DropPath(drop_prob=0.052)
          (norm_1): LayerNorm((768,), eps=1e-06, elementwise_affine=True)
          (mlp): Mlp(
            (fc1): Linear(in_features=768, out_features=3072, bias=True)
            (act): GELU(approximate='none')
            (fc2): Linear(in_features=3072, out_features=768, bias=True)
            (drop): Dropout(p=0.0, inplace=False)
          )
          (norm_2): LayerNorm((768,), eps=1e-06, elementwise_affine=True)
        )
        (17): BlockWithMasking(
          (attn): MultiheadAttention(
            (out_proj): NonDynamicallyQuantizableLinear(in_features=768, out_features=768, bias=True)
          )
          (drop_path): DropPath(drop_prob=0.055)
          (norm_1): LayerNorm((768,), eps=1e-06, elementwise_affine=True)
          (mlp): Mlp(
            (fc1): Linear(in_features=768, out_features=3072, bias=True)
            (act): GELU(approximate='none')
            (fc2): Linear(in_features=3072, out_features=768, bias=True)
            (drop): Dropout(p=0.0, inplace=False)
          )
          (norm_2): LayerNorm((768,), eps=1e-06, elementwise_affine=True)
        )
        (18): BlockWithMasking(
          (attn): MultiheadAttention(
            (out_proj): NonDynamicallyQuantizableLinear(in_features=768, out_features=768, bias=True)
          )
          (drop_path): DropPath(drop_prob=0.058)
          (norm_1): LayerNorm((768,), eps=1e-06, elementwise_affine=True)
          (mlp): Mlp(
            (fc1): Linear(in_features=768, out_features=3072, bias=True)
            (act): GELU(approximate='none')
            (fc2): Linear(in_features=3072, out_features=768, bias=True)
            (drop): Dropout(p=0.0, inplace=False)
          )
          (norm_2): LayerNorm((768,), eps=1e-06, elementwise_affine=True)
        )
        (19): BlockWithMasking(
          (attn): MultiheadAttention(
            (out_proj): NonDynamicallyQuantizableLinear(in_features=768, out_features=768, bias=True)
          )
          (drop_path): DropPath(drop_prob=0.061)
          (norm_1): LayerNorm((768,), eps=1e-06, elementwise_affine=True)
          (mlp): Mlp(
            (fc1): Linear(in_features=768, out_features=3072, bias=True)
            (act): GELU(approximate='none')
            (fc2): Linear(in_features=3072, out_features=768, bias=True)
            (drop): Dropout(p=0.0, inplace=False)
          )
          (norm_2): LayerNorm((768,), eps=1e-06, elementwise_affine=True)
        )
        (20): BlockWithMasking(
          (attn): MultiheadAttention(
            (out_proj): NonDynamicallyQuantizableLinear(in_features=768, out_features=768, bias=True)
          )
          (drop_path): DropPath(drop_prob=0.065)
          (norm_1): LayerNorm((768,), eps=1e-06, elementwise_affine=True)
          (mlp): Mlp(
            (fc1): Linear(in_features=768, out_features=3072, bias=True)
            (act): GELU(approximate='none')
            (fc2): Linear(in_features=3072, out_features=768, bias=True)
            (drop): Dropout(p=0.0, inplace=False)
          )
          (norm_2): LayerNorm((768,), eps=1e-06, elementwise_affine=True)
        )
        (21): BlockWithMasking(
          (attn): MultiheadAttention(
            (out_proj): NonDynamicallyQuantizableLinear(in_features=768, out_features=768, bias=True)
          )
          (drop_path): DropPath(drop_prob=0.068)
          (norm_1): LayerNorm((768,), eps=1e-06, elementwise_affine=True)
          (mlp): Mlp(
            (fc1): Linear(in_features=768, out_features=3072, bias=True)
            (act): GELU(approximate='none')
            (fc2): Linear(in_features=3072, out_features=768, bias=True)
            (drop): Dropout(p=0.0, inplace=False)
          )
          (norm_2): LayerNorm((768,), eps=1e-06, elementwise_affine=True)
        )
        (22): BlockWithMasking(
          (attn): MultiheadAttention(
            (out_proj): NonDynamicallyQuantizableLinear(in_features=768, out_features=768, bias=True)
          )
          (drop_path): DropPath(drop_prob=0.071)
          (norm_1): LayerNorm((768,), eps=1e-06, elementwise_affine=True)
          (mlp): Mlp(
            (fc1): Linear(in_features=768, out_features=3072, bias=True)
            (act): GELU(approximate='none')
            (fc2): Linear(in_features=3072, out_features=768, bias=True)
            (drop): Dropout(p=0.0, inplace=False)
          )
          (norm_2): LayerNorm((768,), eps=1e-06, elementwise_affine=True)
        )
        (23): BlockWithMasking(
          (attn): MultiheadAttention(
            (out_proj): NonDynamicallyQuantizableLinear(in_features=768, out_features=768, bias=True)
          )
          (drop_path): DropPath(drop_prob=0.074)
          (norm_1): LayerNorm((768,), eps=1e-06, elementwise_affine=True)
          (mlp): Mlp(
            (fc1): Linear(in_features=768, out_features=3072, bias=True)
            (act): GELU(approximate='none')
            (fc2): Linear(in_features=3072, out_features=768, bias=True)
            (drop): Dropout(p=0.0, inplace=False)
          )
          (norm_2): LayerNorm((768,), eps=1e-06, elementwise_affine=True)
        )
        (24): BlockWithMasking(
          (attn): MultiheadAttention(
            (out_proj): NonDynamicallyQuantizableLinear(in_features=768, out_features=768, bias=True)
          )
          (drop_path): DropPath(drop_prob=0.077)
          (norm_1): LayerNorm((768,), eps=1e-06, elementwise_affine=True)
          (mlp): Mlp(
            (fc1): Linear(in_features=768, out_features=3072, bias=True)
            (act): GELU(approximate='none')
            (fc2): Linear(in_features=3072, out_features=768, bias=True)
            (drop): Dropout(p=0.0, inplace=False)
          )
          (norm_2): LayerNorm((768,), eps=1e-06, elementwise_affine=True)
        )
        (25): BlockWithMasking(
          (attn): MultiheadAttention(
            (out_proj): NonDynamicallyQuantizableLinear(in_features=768, out_features=768, bias=True)
          )
          (drop_path): DropPath(drop_prob=0.081)
          (norm_1): LayerNorm((768,), eps=1e-06, elementwise_affine=True)
          (mlp): Mlp(
            (fc1): Linear(in_features=768, out_features=3072, bias=True)
            (act): GELU(approximate='none')
            (fc2): Linear(in_features=3072, out_features=768, bias=True)
            (drop): Dropout(p=0.0, inplace=False)
          )
          (norm_2): LayerNorm((768,), eps=1e-06, elementwise_affine=True)
        )
        (26): BlockWithMasking(
          (attn): MultiheadAttention(
            (out_proj): NonDynamicallyQuantizableLinear(in_features=768, out_features=768, bias=True)
          )
          (drop_path): DropPath(drop_prob=0.084)
          (norm_1): LayerNorm((768,), eps=1e-06, elementwise_affine=True)
          (mlp): Mlp(
            (fc1): Linear(in_features=768, out_features=3072, bias=True)
            (act): GELU(approximate='none')
            (fc2): Linear(in_features=3072, out_features=768, bias=True)
            (drop): Dropout(p=0.0, inplace=False)
          )
          (norm_2): LayerNorm((768,), eps=1e-06, elementwise_affine=True)
        )
        (27): BlockWithMasking(
          (attn): MultiheadAttention(
            (out_proj): NonDynamicallyQuantizableLinear(in_features=768, out_features=768, bias=True)
          )
          (drop_path): DropPath(drop_prob=0.087)
          (norm_1): LayerNorm((768,), eps=1e-06, elementwise_affine=True)
          (mlp): Mlp(
            (fc1): Linear(in_features=768, out_features=3072, bias=True)
            (act): GELU(approximate='none')
            (fc2): Linear(in_features=3072, out_features=768, bias=True)
            (drop): Dropout(p=0.0, inplace=False)
          )
          (norm_2): LayerNorm((768,), eps=1e-06, elementwise_affine=True)
        )
        (28): BlockWithMasking(
          (attn): MultiheadAttention(
            (out_proj): NonDynamicallyQuantizableLinear(in_features=768, out_features=768, bias=True)
          )
          (drop_path): DropPath(drop_prob=0.090)
          (norm_1): LayerNorm((768,), eps=1e-06, elementwise_affine=True)
          (mlp): Mlp(
            (fc1): Linear(in_features=768, out_features=3072, bias=True)
            (act): GELU(approximate='none')
            (fc2): Linear(in_features=3072, out_features=768, bias=True)
            (drop): Dropout(p=0.0, inplace=False)
          )
          (norm_2): LayerNorm((768,), eps=1e-06, elementwise_affine=True)
        )
        (29): BlockWithMasking(
          (attn): MultiheadAttention(
            (out_proj): NonDynamicallyQuantizableLinear(in_features=768, out_features=768, bias=True)
          )
          (drop_path): DropPath(drop_prob=0.094)
          (norm_1): LayerNorm((768,), eps=1e-06, elementwise_affine=True)
          (mlp): Mlp(
            (fc1): Linear(in_features=768, out_features=3072, bias=True)
            (act): GELU(approximate='none')
            (fc2): Linear(in_features=3072, out_features=768, bias=True)
            (drop): Dropout(p=0.0, inplace=False)
          )
          (norm_2): LayerNorm((768,), eps=1e-06, elementwise_affine=True)
        )
        (30): BlockWithMasking(
          (attn): MultiheadAttention(
            (out_proj): NonDynamicallyQuantizableLinear(in_features=768, out_features=768, bias=True)
          )
          (drop_path): DropPath(drop_prob=0.097)
          (norm_1): LayerNorm((768,), eps=1e-06, elementwise_affine=True)
          (mlp): Mlp(
            (fc1): Linear(in_features=768, out_features=3072, bias=True)
            (act): GELU(approximate='none')
            (fc2): Linear(in_features=3072, out_features=768, bias=True)
            (drop): Dropout(p=0.0, inplace=False)
          )
          (norm_2): LayerNorm((768,), eps=1e-06, elementwise_affine=True)
        )
        (31): BlockWithMasking(
          (attn): MultiheadAttention(
            (out_proj): NonDynamicallyQuantizableLinear(in_features=768, out_features=768, bias=True)
          )
          (drop_path): DropPath(drop_prob=0.100)
          (norm_1): LayerNorm((768,), eps=1e-06, elementwise_affine=True)
          (mlp): Mlp(
            (fc1): Linear(in_features=768, out_features=3072, bias=True)
            (act): GELU(approximate='none')
            (fc2): Linear(in_features=3072, out_features=768, bias=True)
            (drop): Dropout(p=0.0, inplace=False)
          )
          (norm_2): LayerNorm((768,), eps=1e-06, elementwise_affine=True)
        )
      )
      (post_transformer_layer): EinOpsRearrange()
    )
  )
  (stems): ModuleDict(
    (Robotwin_image): MLP(
      (net): ModuleList(
        (0-4): 5 x Sequential(
          (0): Linear(in_features=512, out_features=128, bias=True)
          (1): SiLU()
          (2): Linear(in_features=128, out_features=768, bias=True)
        )
      )
      (cross_attention): CrossAttention(
        (to_q): Linear(in_features=768, out_features=512, bias=False)
        (to_kv): Linear(in_features=768, out_features=1024, bias=False)
        (to_out): Linear(in_features=512, out_features=768, bias=True)
        (dropout): Dropout(p=0.1, inplace=False)
      )
    )
    (Robotwin_state): MLP(
      (net): Sequential(
        (0): Linear(in_features=14, out_features=128, bias=True)
        (1): SiLU()
        (2): Linear(in_features=128, out_features=768, bias=True)
      )
      (cross_attention): CrossAttention(
        (to_q): Linear(in_features=768, out_features=512, bias=False)
        (to_kv): Linear(in_features=768, out_features=1024, bias=False)
        (to_out): Linear(in_features=512, out_features=768, bias=True)
        (dropout): Dropout(p=0.1, inplace=False)
      )
    )
  )
  (heads): ModuleDict(
    (Robotwin): MLP(
      (net): Sequential(
        (0): Linear(in_features=768, out_features=256, bias=True)
        (1): SiLU()
        (2): Linear(in_features=256, out_features=128, bias=True)
        (3): Dropout(p=0.1, inplace=False)
        (4): LayerNorm((128,), eps=1e-05, elementwise_affine=True)
        (5): SiLU()
        (6): Linear(in_features=128, out_features=112, bias=True)
      )
    )
  )
  (normalizer): ModuleDict(
    (Robotwin): LinearNormalizer(
      (params_dict): ParameterDict(
          (action): Object of type: ParameterDict
          (state): Object of type: ParameterDict
        (action): ParameterDict(
            (offset): Parameter containing: [torch.cuda.FloatTensor of size 14 (cuda:0)]
            (scale): Parameter containing: [torch.cuda.FloatTensor of size 14 (cuda:0)]
…
